…
           8    0.87156   0.95960   0.91346        99
           9    0.91667   0.92632   0.92147        95
          10    0.98969   0.96970   0.97959        99
          11    0.96907   0.92157   0.94472       102

   micro avg    0.91580   0.91580   0.91580      1342
   macro avg    0.91744   0.92021   0.91796      1342
weighted avg    0.91747   0.91580   0.91584      1342

Model summary:
_________________________________________________________________
Layer (type)                 Output Shape              Param #   
=================================================================
conv2d_1 (Conv2D)            (None, 19, 10, 32)        160       
_________________________________________________________________
conv2d_2 (Conv2D)            (None, 18, 9, 48)         6192      
_________________________________________________________________
conv2d_3 (Conv2D)            (None, 17, 8, 120)        23160     
_________________________________________________________________
max_pooling2d_1 (MaxPooling2 (None, 8, 4, 120)         0         
_________________________________________________________________
dropout_1 (Dropout)          (None, 8, 4, 120)         0         
_________________________________________________________________
flatten_1 (Flatten)          (None, 3840)              0         
_________________________________________________________________
dense_1 (Dense)              (None, 128)               491648    
_________________________________________________________________
dropout_2 (Dropout)          (None, 128)               0         
_________________________________________________________________
dense_2 (Dense)              (None, 64)                8256      
_________________________________________________________________
dropout_3 (Dropout)          (None, 64)                0         
_________________________________________________________________
dense_3 (Dense)              (None, 12)                780       
=================================================================
Total params: 530,196
Trainable params: 530,196
Non-trainable params: 0
_________________________________________________________________
