…
           8    0.87156   0.95960   0.91346        99
           9    0.88889   0.92632   0.90722        95
          10    1.00000   0.95960   0.97938        99
          11    0.93137   0.93137   0.93137       102

   micro avg    0.91356   0.91356   0.91356      1342
   macro avg    0.91456   0.91591   0.91428      1342
weighted avg    0.91571   0.91356   0.91377      1342

Model summary:
_________________________________________________________________
Layer (type)                 Output Shape              Param #   
=================================================================
conv2d_7 (Conv2D)            (None, 19, 10, 32)        160       
_________________________________________________________________
conv2d_8 (Conv2D)            (None, 18, 9, 48)         6192      
_________________________________________________________________
conv2d_9 (Conv2D)            (None, 17, 8, 120)        23160     
_________________________________________________________________
max_pooling2d_3 (MaxPooling2 (None, 8, 4, 120)         0         
_________________________________________________________________
dropout_7 (Dropout)          (None, 8, 4, 120)         0         
_________________________________________________________________
flatten_3 (Flatten)          (None, 3840)              0         
_________________________________________________________________
dense_7 (Dense)              (None, 128)               491648    
_________________________________________________________________
dropout_8 (Dropout)          (None, 128)               0         
_________________________________________________________________
dense_8 (Dense)              (None, 64)                8256      
_________________________________________________________________
dropout_9 (Dropout)          (None, 64)                0         
_________________________________________________________________
dense_9 (Dense)              (None, 12)                780       
=================================================================
Total params: 530,196
Trainable params: 530,196
Non-trainable params: 0
_________________________________________________________________
