…
           8    0.89706   1.00000   0.94574        61
           9    0.95082   0.89231   0.92063        65
          10    1.00000   0.95455   0.97674        66
          11    0.98113   0.98113   0.98113        53

   micro avg    0.89953   0.89953   0.89953       856
   macro avg    0.91215   0.91118   0.90911       856
weighted avg    0.90482   0.89953   0.89965       856

Model summary:
_________________________________________________________________
Layer (type)                 Output Shape              Param #   
=================================================================
conv2d_1 (Conv2D)            (None, 19, 10, 32)        160       
_________________________________________________________________
conv2d_2 (Conv2D)            (None, 18, 9, 48)         6192      
_________________________________________________________________
conv2d_3 (Conv2D)            (None, 17, 8, 120)        23160     
_________________________________________________________________
max_pooling2d_1 (MaxPooling2 (None, 8, 4, 120)         0         
_________________________________________________________________
dropout_1 (Dropout)          (None, 8, 4, 120)         0         
_________________________________________________________________
flatten_1 (Flatten)          (None, 3840)              0         
_________________________________________________________________
dense_1 (Dense)              (None, 128)               491648    
_________________________________________________________________
dropout_2 (Dropout)          (None, 128)               0         
_________________________________________________________________
dense_2 (Dense)              (None, 64)                8256      
_________________________________________________________________
dropout_3 (Dropout)          (None, 64)                0         
_________________________________________________________________
dense_3 (Dense)              (None, 12)                780       
=================================================================
Total params: 530,196
Trainable params: 530,196
Non-trainable params: 0
_________________________________________________________________
